app/src/main/ml/model.tflite (tflite, 149336 bytes, 10 tensors)

sequential_2/conv2d_6/Relu;sequential_2/conv2d_6/BiasAdd;sequential_2/conv2d_8/Conv2D;sequential_2/conv2d_6/Conv2D;sequential_2/conv2d_6/BiasAdd/ReadVariableOp f4 [32, 3, 3, 3]
00000000: b41c ebb6 d0e5 f7b9 5ee1 2639 3102 db39
00000010: 5180 d4b9 dbf2 bfb9 1719 d139 7a28 34b9
00000020: f7fc 54b9 02c8 013a 4bc0 7ab9 23c5 1bba
00000030: f39c c939 68d1 95b9 4b89 eab8 6dec a7b4
00000040: f16e 6639 7541 063a 7576 fd39 bf78 a0b9
00000050: 848d 8739 aa19 92b9 b9b7 9c39 cb6b d1b9
00000060: 180a f539 d711 6239 e750 09ba 761a 29b9
00000070: c0a5 af39 2fad 70b9 6a38 5db8 255b 60b8
00000080: 5d03 073a db0c 5439 5ccc f0b9 e6ba af39
00000090: 46b2 df39 18bb 8339 61cc dd39 4d42 1038
000000a0: 69d6 d238 d815 f639 0f57 f039 018b 5bb9
000000b0: 1c45 fd39 fe72 0239 c4f7 5638 c248 fc39
000000c0: 68c7 aeb9 2e61 aeb9 c0a4 eb39 241d a2b9
000000d0: d711 f3b9 4a5a 16b9 a79c 05b9 866f 5139
000000e0: 4b08 8339 3ae8 6639 9e37 e2b9 cc66 a239
000000f0: da60 ab38 2329 b1b9 949f aeb8 b0a3 aab9
00000100: e4c8 4239 66fd b039 9f89 02ba 0bf8 9c39
00000110: 41e1 cf39 7706 e1b6 9739 1eb9 4968 4539
00000120: d3f7 9b37 87a0 8e37 d9e5 083a c222 c339
00000130: d746 aab8 dc2a f639 f388 5cb9 c91c d739
00000140: 21ce a539 857d 2fb9 41e3 0ab9 1456 8138
00000150: f359 fab9 3598 023a fb4f dab9 2600 a6b9
00000160: bff0 8139 f74f e138 cc67 e0b8 eeff 093a
00000170: e86e a839 49ce 2039 d024 02b9 ffb5 94b9
00000180: 1414 8839 954a 49b9 471f 7439 5d07 d139
00000190: 6334 ff39 b785 e9b3 76d4 6ab9 f750 183a
000001a0: e3a0 7db9 5b08 04ba 2057 bd39 34f1 edb8
000001b0: c389 dab9 800a 74b9 dd18 cf39 8414 fab8
000001c0: 56a7 04ba 0e07 67b9 4011 2539 7e04 d2b8
000001d0: fdf8 ed39 8a52 46b9 2467 ed39 55f8 4db8
000001e0: 3f3d 5a39 ad5a e539 13cd a3b9 9d1a 3bb9
000001f0: af7d 4d39 37b5 b839 1c22 fcb8 af5d ff39
00000200: 04e9 8038 11a0 e039 2a54 7538 e80a 013a
00000210: d960 a439 2f65 aeb9 e6df 053a 6cd5 06b7
00000220: e4ab 1cba dfec d7b9 b454 0f3a 9426 e939
00000230: 7073 5436 bfb0 8db9 db86 9339 2ad1 d539
00000240: 83bc 98b9 0d1e 8b39 cb40 df39 b06a 0a3a
00000250: 7243 d7b9 b986 acb9 73ad 9339 3446 f5b9
00000260: 7d7a a7b9 cf36 e539 73d9 f3b9 f1ff cab9
00000270: 6840 49b9 bf9a 58b9 fa44 3e39 7623 0b3a
00000280: 83cb f8b9 4149 8c38 fd34 71b9 d149 063a
00000290: 5e53 cf38 66e8 9d38 e345 8839 f1cf ed39
000002a0: b80b c339 8d94 8c39 938a ff39 dde3 b139
000002b0: 5681 19b9 335c 24ba b326 bfb9 7752 a839
000002c0: d97e 8339 1fcb 5f37 91a3 b639 71d7 0e3a
000002d0: 0421 b6b8 0d8c 033a deca f639 1662 e239
000002e0: 549c a939 e64a c6b9 6b0e 0a3a 1ac0 b438
000002f0: 3d92 7ab9 c76b e238 eae2 3c39 c4c2 75b9
00000300: 61a2 4ab9 b76d 80b9 1045 7fb8 5856 e839
00000310: 3d05 6939 63aa 9d39 1b94 78b9 3e09 cab9
00000320: 93dc a238 67ea 33b9 1237 7139 f116 19ba
00000330: de83 aa39 7124 c339 5c63 1738 0ac1 7eb8
00000340: ab5b 063a 0762 09ba 87fa b3b9 adc5 cf36
00000350: db39 16ba 347a 48b8 97eb 24b9 965f e638
00000360: 6cfa a2b8 6e31 eb39 58b2 7239 4dca 7737
00000370: 0832 093a 7034 43b9 66ad d7b9 3d3f b639
00000380: 7477 fa39 02e9 1fba 771d dcb8 2365 0dba
00000390: 15ed 96b9 b0da f4b9 61f6 6639 3630 dd39
000003a0: 3dbb e439 2188 edb8 8c52 a938 e436 e539
000003b0: a3aa 2039 f40d ce39 5d78 eab9 1872 8a39
000003c0: 3de8 dab8 8829 163a 10b7 c139 3128 c9b8
000003d0: a148 aab9 7f72 f6b9 b6fa f538 65de 5139
000003e0: 54b4 0b3a a619 cab9 1ae4 cf37 5902 cdb9
000003f0: 9019 48b8 79a8 ea38 cb37 123a 2a42 a3b7
-7.0068872e-06 -0.00047282735 0.0001591495 0.00041772568 -0.00040531394 -0.000366113 0.0003988228 -0.00017181216
-0.00020312132 0.0004950763 -0.00023913493 -0.00059421564 0.00038454644 -0.00028575514 -0.00011183562 -3.1278196e-07
0.00021975838 0.0005121448 0.00048344178 -0.0003060754 0.00025854644 -0.0002786641 0.00029891523 -0.00039943898
0.00046737562 0.00021559685 -0.00052381906 -0.00016126953 0.00033502094 -0.000229527 -5.2743046e-05 -5.3490647e-05
0.00051503425 0.00020222685 -0.00045928627 0.0003351785 0.000426667 0.00025125663 0.0004230468 3.4394023e-05
0.00010053517 0.0004693705 0.0004584123 -0.0002093725 0.0004830741 0.00012440604 5.1252326e-05 0.00048119394
-0.00033336435 -0.0003326027 0.0004494544 -0.0003092076 -0.00046361863 -0.0001433875 -0.00012742226 0.00019973339
0.00024992446 0.0002202102 -0.00043147517 0.00030975637 8.1719554e-05 -0.0003379072 -8.32669e-05 -0.00032546883
0.0001857612 0.00033758132 -0.00049796136 0.00029939445 0.00039649944 -6.706275e-06 -0.00015089508 0.00018826233
1.8592842e-05 1.700247e-05 0.0005222238 0.00037219195 -8.119427e-05 0.0004695271 -0.00021031853 0.00041029442
0.0003162483 -0.0001673606 -0.00013245364 6.167233e-05 -0.00047750733 0.0004981787 -0.0004163979 -0.00031662098
0.00024784167 0.00010743731 -0.00010700486 0.0005264272 0.0003212609 0.00015335636 -0.0001241148 -0.00028364357
0.000259549 -0.00019196638 0.00023281305 0.00039869072 0.0004867642 -1.08742306e-07 -0.00022395127 0.00058104045
-0.00024187895 -0.00050366455 0.00036113802 -0.00011345968 -0.0004168284 -0.00023273565 0.0003950064 -0.0001192475
-0.00050603354 -0.00022032505 0.00015742052 -0.00010014417 0.00045389673 -0.000189135 0.00045281008 -4.9107086e-05
0.00020812916 0.00043745842 -0.00031242575 -0.00017843624 0.00019597144 0.0003523023 -0.0001202265 0.0004870719
6.146918e-05 0.00042843868 5.8490936e-05 0.00049225846 0.00031352675 -0.00033263254 0.0005106911 -8.036714e-06
-0.00059765414 -0.00041184478 0.0005467639 0.00044469966 3.1657655e-06 -0.00027025302 0.000281385 0.00040782365
-0.0002913215 0.00026534536 0.0004258215 0.000528018 -0.00041058246 -0.00032906773 0.00028167255 -0.00046782347
-0.00031943983 0.0004371912 -0.00046510584 -0.00038719134 -0.00019192847 -0.00020657013 0.00018145508 0.0005307713
-0.00047453874 6.689365e-05 -0.0002300329 0.0005122694 9.8860575e-05 7.529631e-05 0.0002599201 0.0004535909
0.0003720203 0.0002681356 0.00048740636 0.00033929842 -0.00014639398 -0.0006269842 -0.00036459192 0.00032104898
0.00025080776 1.3339129e-05 0.00034835612 0.00054489734 -8.684586e-05 0.00050181226 0.00047071924 0.0004317916
0.00032350665 -0.00037821307 0.00052664307 8.6188506e-05 -0.00023896336 0.00010796595 0.00018013609 -0.00023437577
-0.00019324712 -0.00024495806 -6.0861057e-05 0.0004431482 0.00022222563 0.00030072322 -0.00023706297 -0.00038535328
7.765847e-05 -0.00017158092 0.00023004066 -0.00058399054 0.00032523175 0.0003722045 3.609374e-05 -6.07381e-05
0.0005125354 -0.00052407425 -0.00034328198 6.192093e-06 -0.0005730667 -4.7797526e-05 -0.00015728023 0.00010985059
-7.771407e-05 0.0004485952 0.00023145357 1.4769449e-05 0.00052335905 -0.00018616184 -0.00041137188 0.0003476086
0.00047772715 -0.00061000895 -0.00010495906 -0.00053937937 -0.0002878687 -0.00046702242 0.00022026293 0.00042188325
0.00043627052 -0.000113263966 8.0739235e-05 0.0004371918 0.00015322356 0.00039301778 -0.00044721636 0.00026406418
-0.00010438308 0.00057282345 0.0003694822 -9.591913e-05 -0.0003247904 -0.00047006083 0.00011729209 0.00020014642
0.00053293 -0.00038547552 2.4782541e-05 -0.00039102396 -4.7707523e-05 0.0001118937 0.0005577772 -1.9461924e-05

sequential_2/conv2d_6/BiasAdd/ReadVariableOp f4 [32]
00000000: a748 213c 5fca 993b 0f09 0c3c 86eb 373c
00000010: e047 92bc ca30 403a b877 d9bc eb5b ffbb
00000020: 3f25 1dbc c964 243c 9165 813c d8ea b3bb
00000030: 4ee1 a43a f928 0abc aaf3 9e38 e6b6 d1bb
00000040: c2d1 46bb 1e6e de3c 1818 b63c 5f8e b53c
00000050: c61c 5f3d 35c6 9f3b 2dbd 6b3c 6726 603c
00000060: 0159 073d 109b 883c 9035 38bc 154a 7d3c
00000070: 30fd 963b f209 c83c cde6 29bc 363d 503c
0.009843982 0.004693314 0.008547082 0.011225587 -0.017856538 0.0007331489 -0.026546344 -0.00779294
-0.0095914 0.010033795 0.015795501 -0.005490642 0.0012579353 -0.00843262 7.579413e-05 -0.006399977
-0.0030337428 0.027152117 0.022228286 0.022162614 0.0544708 0.004875923 0.014388365 0.013681031
0.033043865 0.016675502 -0.011243239 0.015459557 0.004607819 0.024418805 -0.010369969 0.012709906

sequential_2/conv2d_7/BiasAdd/ReadVariableOp f4 [32]
00000000: 96da 073c 31e5 133c 56dd 083c d0c3 b13b
00000010: 3a9e 80ba fb67 afbb f883 c8bb 6d09 a0bb
00000020: 91fd ddba f170 2f3c 47e2 8d3c 3154 553b
00000030: f89f 4aba 708f fcba 8243 573c 36bf 293c
00000040: 4597 543b 29b2 493c 49ee 183c 4aea 6a3c
00000050: 685d 32bc 7e5f 253c b197 acbb 7d34 8bbb
00000060: 3e56 fc38 6b56 b8ba d8c6 01bc bd91 503c
00000070: 214b 9c3b d917 203c dec8 d8ba bbf6 603c
0.008291861 0.009026811 0.008353552 0.005424954 -0.000981278 -0.0053529716 -0.0061192475 -0.004883936
-0.0016936531 0.01070808 0.017319812 0.0032551403 -0.00077295257 -0.0019268822 0.013138654 0.01036053
0.0032438796 0.012310543 0.009334155 0.014338085 -0.010886528 0.010093568 -0.0052671065 -0.0042482005
0.0001203236 -0.001406384 -0.007920943 0.012730059 0.0047696983 0.009771311 -0.0016539355 0.0137307

sequential_2/conv2d_8/BiasAdd/ReadVariableOp f4 [32]
00000000: 4c28 d73a 2d5f 153c 629d cfba 4c0d 85bb
00000010: 2e54 303c 2456 8cbb 9465 8d3c 92e0 843b
00000020: a013 9a3b ebb8 22bc 615d c7ba 2c14 f93b
00000030: 253c 633c ec4a a138 debe fa3b a777 8e3b
00000040: 1285 c4bb f312 993c 96a1 d0bb 876a bb3b
00000050: cc3f 3abc 00b5 6d3b 6e4b 863b 317a abbb
00000060: 4f03 f73b 8886 c73b 1c4f 293c 9bbf c4bb
00000070: 05fd a0bb 79d8 843c ff79 d3ba c321 b8b9
0.0016415208 0.00911693 -0.001583975 -0.004060423 0.0107622575 -0.0042827297 0.01726035 0.004055091
0.0047020465 -0.009931783 -0.0015210324 0.0076012816 0.01386932 7.6910335e-05 0.0076521477 0.0043477598
-0.0059973085 0.018685794 -0.006366919 0.005719486 -0.011367749 0.0036271214 0.0040983474 -0.005233072
0.007538236 0.0060890354 0.010333803 -0.0060042865 -0.004912975 0.016216503 -0.001613438 -0.0003512037

sequential_2/conv2d_7/Conv2D f4 [32, 3, 3, 32]
00000000: 8dec 97bd d45c c8b9 6553 193c e41f 2a3d
00000010: d214 273d ba47 5e3d b281 663d aa6c 2f3c
00000020: 669a c83d 6c3b 953d 73bd fcbb 6da8 86bd
00000030: 974e d43d 0fcc ca3d 8d2d 6abd 030a 0d3d
00000040: 958f 83bd 1696 8a3d 729d d23d 097a 67bc
00000050: 5c1d aa3b f00e 543c 291a 21bd 257f 8a3d
00000060: 0f89 05bd 85a5 793d bd7f bcbd a5a7 ddbc
00000070: 6747 60bc 769a 09bc 5e61 b8bd e253 d13d
00000080: 3cd5 303d e9b3 83bc 8b57 1ebd 6038 9b3d
00000090: 9a9a d2bd bf56 66bd c600 6e3d 4b66 833b
000000a0: fe59 cebd 7bf6 ed3b 67ef bf3d c865 76bd
000000b0: 51e1 a83d eb65 d8bc 11b6 ce3d 763e 94bd
000000c0: 3719 e13d a376 8b3d 3e11 833d 5442 cb3d
000000d0: f8ff 08bd bb0b 4e3d 778d 293d ee4a f93d
000000e0: 65ca d5ba c7d4 32bc 5403 4dbb c844 4e3a
000000f0: 9506 8f3d b15c fb3d 9bfd 7a3d 10fa 23bb
00000100: ce76 4dbd ab1c aebc e361 993d d83e efbc
00000110: 379d d9bd 3f6b 873d a1ec 313d e7d1 d43c
00000120: 9483 d0bd dff5 64bd 9430 7cbc 6807 9d3d
00000130: 197e 2b3d 39b5 a2bd 72e0 cebc d812 e4bd
00000140: 9312 8c3d a551 7d3d ffbe 17bd f6a1 12bd
00000150: 4427 56bd 424f 023c 4576 2d3d 5f7d 1abd
00000160: ff6e 173d 490e c63d 611b 733b 3281 1b3d
00000170: 8a7a 843d 9e4f 773d 0c7b c6bd 79b0 363d
00000180: fd69 90bd 21a7 9b3c 4cec 02bd bd68 ccbc
00000190: fea5 393d 4ac0 d03c d5b0 66bc 1da7 a53d
000001a0: f783 ab3d 02f7 243d 90bc c53d 953e f5bc
000001b0: 7756 033d 226a b6bd 05ff a83d 87bf b5bc
000001c0: a945 353d 827f 953b 5b8f 0e3c 5d60 bebb
000001d0: 66d8 d73c 7282 afbd 3061 973d 3906 b33d
000001e0: edc2 443d 443c 8c3d cb0c c7bd d882 b63d
000001f0: 47bc b6bd 606f 943c 023b bd3d 05c3 8dbd
00000200: d673 b2bd 289f 543d 5b30 833d 313f 0bbd
00000210: c4bc 83bc 77e3 97bb 6c04 b0bd 66f7 a7bd
00000220: 8533 01bd 99db 553d f299 82bd 86a6 6e3c
00000230: 3a97 6abd 3b4e 453d 1f6b c6bc 2868 c33d
00000240: ae49 e53c 44e2 873d 892a e9bc 7c17 f8bb
00000250: 24e6 03bd 6b8d 663c 9d07 5f3d 7903 403d
00000260: 9b50 b2bb e2a1 c33d 75d9 7f3c 86f6 cf3d
00000270: 32d9 253d 15a5 78bc cf04 1f3c ceef 47bd
00000280: 6380 a3bd 4d04 70bc 522a 73bd aa07 473c
00000290: ea4d 9e3d f184 db3c 8f93 9c3d 2b1f 403d
000002a0: 9910 94bb 270d cbbb a36a 813d 92e1 a73d
000002b0: a14f 933c ab22 11bd dee1 a93d 0ed4 f0bc
000002c0: cd60 13bd c61d 103c ead0 91bd 3975 dc3d
000002d0: ad34 663d cf96 9a3d c4f3 eebc 255c 43bd
000002e0: 7915 21bd ad02 2abd d33f c13d 8902 003e
000002f0: a58e aebc 4136 bc3d 7fe3 1ebd cda6 473d
00000300: 177b 06bd 8515 6d3d 3922 23bd 8c51 09bd
00000310: d454 8c3c cbfb d13d 4d89 60bd 94ae c5bd
00000320: d62d 183d 241e 26bd f025 a6bb 92c7 1b3d
00000330: f570 c9bd 6d76 9e3d 15ef 7dbd f0bc 363c
00000340: 8be4 bfbc 7848 89bd dbaa 8cbb 37cf d83d
00000350: 810a 783d fe5f fa3d 1ef4 5fbd 74d1 2e3d
00000360: db58 12bd 3165 943d d9db c83c 7a98 0e3c
00000370: e7cc a4bd b954 083e 32d8 20bd da80 ce3d
00000380: 3398 d93d bc55 603d 4725 ac3a b67a 103d
00000390: caac 053d eae0 e33c 11e0 9f3d 6051 b9bc
000003a0: fe56 bebd 8249 94bc fc80 ff3c de59 033d
000003b0: 9ae5 02be 3e30 c2bd 79d3 c93d c788 9abd
000003c0: cf67 513c 8ae0 a1bd a79e 9d3c 6cd4 743d
000003d0: 553e bcbd 97b9 a2bb 1ea8 62bd 5e27 e73d
000003e0: e71f 563d 50b9 0cbd 3db8 a7bd 9fde e73d
000003f0: d91d aebd b0ef 233d 8186 3f3c da92 cf3d
-0.07418165 -0.00038216135 0.009358262 0.04153432 0.04079134 0.054267623 0.05627603 0.01070706
0.09795074 0.072867244 -0.007713014 -0.065750934 0.10366552 0.09902202 -0.057172347 0.034433376
-0.064238705 0.06766908 0.102839366 -0.014128217 0.005191488 0.0129430145 -0.03933159 0.06762532
-0.032601412 0.060948867 -0.09204052 -0.027057478 -0.013688899 -0.008398643 -0.09002946 0.102210775
0.043172106 -0.016076999 -0.038657706 0.07579112 -0.10283394 -0.05623507 0.058106206 0.004009997
-0.100757584 0.007262049 0.09371834 -0.06015566 0.08246101 -0.026415786 0.1009332 -0.07238476
0.109911375 0.068097375 0.06399773 0.099247605 -0.033447236 0.050304156 0.041394677 0.12172495
-0.0016310929 -0.010914988 -0.0031282501 0.00078685256 0.06983677 0.12273539 0.061277013 -0.0025020875
-0.05016213 -0.021253904 0.074893735 -0.02920477 -0.106256895 0.066122524 0.043438558 0.025978995
-0.101813465 -0.055898543 -0.015392441 0.07667428 0.041868303 -0.07944722 -0.025253508 -0.11136407
0.0683948 0.06184544 -0.037047382 -0.03579899 -0.05228354 0.007953467 0.04234912 -0.03771722
0.03697109 0.096706934 0.0037095177 0.037965007 0.06468685 0.060378663 -0.09691438 0.04460189
-0.07051466 0.019000592 -0.03196363 -0.024952287 0.045324318 0.025482316 -0.014080246 0.08088515
0.0837478 0.040274628 0.09655106 -0.029937068 0.03206488 -0.08906962 0.08251766 -0.022186054
0.044255886 0.0045623193 0.008701171 -0.0058098272 0.026348304 -0.08569802 0.07391584 0.08741421
0.04803746 0.06847432 -0.09719237 0.08911675 -0.0892263 0.018119514 0.092397705 -0.06921963
-0.087135 0.051909596 0.064057074 -0.03399581 -0.016081221 -0.00463527 -0.085945934 -0.082014844
-0.031543273 0.052211378 -0.06377019 0.0145660695 -0.057273127 0.04817031 -0.024221001 0.095413506
0.027989235 0.066349536 -0.028462665 -0.007571159 -0.0322019 0.014071803 0.05445062 0.04687831
-0.005441738 0.09552361 0.015615811 0.101544425 0.040490337 -0.015176077 0.009705736 -0.04881268
-0.07983472 -0.014649463 -0.05936653 0.012147823 0.07729705 0.02679679 0.07645332 0.046904724
-0.00451858 -0.0061966362 0.063191675 0.08197321 0.017982306 -0.035433453 0.08295034 -0.02939799
-0.03598099 0.008796161 -0.07119925 0.10764546 0.05620258 0.07548296 -0.02916897 -0.047695298
-0.03932712 -0.041506458 0.09436002 0.12500967 -0.021308253 0.091900356 -0.038791176 0.048743058
-0.03283223 0.05788185 -0.03982756 -0.033525035 0.017130293 0.10253104 -0.05481844 -0.09652439
0.037153088 -0.040556088 -0.0050704405 0.038032122 -0.09835998 0.07737432 -0.061995585 0.011153445
-0.023424407 -0.067032754 -0.0042928285 0.10586398 0.060556892 0.1222534 -0.054676168 0.04268022
-0.03572927 0.07245863 0.024518894 0.008703345 -0.080468945 0.13313569 -0.03926868 0.1008317
0.10624733 0.054769263 0.0013133668 0.035273276 0.032635488 0.027817208 0.07806409 -0.02262181
-0.09293936 -0.018101458 0.031189434 0.032068126 -0.12782899 -0.09481858 0.09854788 -0.075456195
0.012781098 -0.079041556 0.01924069 0.059772894 -0.091915764 -0.0049659717 -0.05533611 0.112868056
0.05227652 -0.034356415 -0.081894375 0.113217585 -0.08501787 0.040023506 0.011689783 0.101354316

sequential_2/conv2d_8/Conv2D f4 [32, 3, 3, 32]
00000000: 515b 6abd 41f9 f13c e3ed c63d 24b4 99bc
00000010: 12dc 0cbc d24b 85bd e73d 50bd fa3c 153e
00000020: b306 e4bb aa17 b63c e27c a7bc d84e cb3d
00000030: a7f2 df3c 6f0a 063d 36c3 eb3d dea4 03bd
00000040: 2700 dbbd 8db4 a73d 817f 92bd 7da2 b83c
00000050: 3989 a13d 6418 c4bd a540 9f3d 4ac6 ba3c
00000060: 0f51 dbbd 88ba fabc 4cf9 a3bd 2cfa ac3c
00000070: 7fce 963c e27d 513d 2e9e b1bd 2311 6d3c
00000080: d077 c43d 1acd 0abb 0234 afbd be71 093d
00000090: 102d 4a3d 62b9 80bb 757f a6bd a58c 74bd
000000a0: bca9 813d 76f6 08bc e04a e13c 32b4 b23d
000000b0: 88bf b63d 8665 a1bd 6c34 15bc ddb0 27bd
000000c0: f5e0 d93c bdad 8bba 6522 943c 05c2 9d3d
000000d0: f024 513d acb6 75bd ebc4 1b3d 5c0d c73d
000000e0: 4c8b ab3c 4a2a 03bd e442 57bd 320e 833d
000000f0: 2452 54bd 07a7 973b 9a6a 9ebc c92f bb3d
00000100: 7db1 8cbc 6fb9 973d 5927 c0bd 0c2d 013d
00000110: 005c aebd b930 c9bc af55 c1bd e41c 43bd
00000120: 18e0 633d ed6d c43d 82da 103c 467a 2c3d
00000130: 41b2 9ebd ea0d 363d 4497 db3d 030d 843d
00000140: 4eea 9abd 80d9 acbd 48af 48bd 0667 f0bc
00000150: c028 fc3c 4455 063d 9f6a 5d3c 56d6 94bd
00000160: 8d67 3abd 0ed8 40bd cdb2 19bc afae 5a3d
00000170: 9b88 7c3d 6b49 c83d 8e25 5fbd 9059 573d
00000180: fb26 65bd b266 413d d50e a13d 881f 973d
00000190: 465b f2bc 73bc 9fbc 627a 9abd 764a 3cbd
000001a0: 397d 1cbd 617e 393d b09f f7bc 7524 873d
000001b0: 9ed3 9fbd 3a6b b3bd 458d 81bd 047c 01be
000001c0: f700 233d 6b51 41bb 5759 953d 6934 883d
000001d0: 26ba acbd 17e5 edbd cc1c 073d b77e 5a3d
000001e0: c51b 103d 3ed2 0ebd 6867 cdbd 9bfe 48bc
000001f0: eac4 4b3c adb9 56bd 92a7 8f3d edb6 833c
00000200: 6e6c eb3d 4eb8 c23d 213b 963d 30b3 c5bc
00000210: 67bf cc3d d0e5 a53d 5714 c53c 93fd b7bd
00000220: 5534 9a3c 1ef0 05bc 5854 11bd 3dc2 913c
00000230: e125 933d 02d8 65bd a960 cfbc 0990 18bd
00000240: bb4d 793d 3866 ef3a 9591 a1bd 6c34 b73d
00000250: aa67 963d 4833 973c 19f8 843d c240 cdbc
00000260: 2598 85bd d7cc b03d 958d 68bc 277b 3cbc
00000270: 6152 9a3d 5946 a83d 8fbc 28bd 887c e43d
00000280: ce6f 063e 1791 ac3d a237 573d 3587 053d
00000290: 4ee2 c33d a743 b7bd 39b3 c7bd 9297 91bd
000002a0: 0865 21bd 2e6a dcbb 0c6b 05ba 8c17 78bd
000002b0: 5dfe 233d 1774 c6bc bd7f 1bbd 11ba 3b3a
000002c0: 3e86 b43d 7bd5 e7bc b623 253d a8d1 cf3c
000002d0: 7d97 3b3d 5c53 eebc cab0 afbd 0a11 823d
000002e0: 7b52 043d 2026 5f3c a667 483d 451f 5c3d
000002f0: c6c2 28bd 6d31 28bd 0be4 d33d bacf d9bc
00000300: 6a81 30bd 480a 24bd fa84 883d 43eb ac3c
00000310: 3ddd a73d 92e5 e23d 39a9 a13d df6e 133d
00000320: ae1d f4ba 7c4c d7bc 6f0c 5ebd 37e3 2cbc
00000330: 193f ba3d e56d 643d 9b6d ddbc c0dd 9abd
00000340: 3e2f 30bb d51f 943d 6907 f9bd 6d00 7dbd
00000350: 47ea bc3d 0dbd fcbd 915b 9b3d 9707 a63d
00000360: aa65 fa3b 356b 45bd 6665 833d 438b b9bd
00000370: d1f8 66bd 152d 46bc 96cd 85bd dff9 57bd
00000380: ac8a 6a3d dcb4 303d 4915 0cbd 68ee 37bd
00000390: 86ca 80bc 809c 85bd 1d9d 8c3c 603a 123e
000003a0: 225e 15bd d43e 10bd 617b 9bbb 2357 45bd
000003b0: e5b2 a4bd d990 eabb ad3e 47bd 707e 2cbd
000003c0: d7ee ba3d 9f2b b5bd 975c 133d 9dc5 633d
000003d0: 03d0 d4bd 5759 a53b 9607 c53d d141 0dbb
000003e0: 7d8f 863d d14a 413d 47c3 613c 5e81 8e3d
000003f0: 49d1 82bc f286 53ba 40e7 97bd 455f c03d
-0.057215992 0.029537799 0.09713342 -0.018762656 -0.008597391 -0.06508602 -0.050840285 0.14574042
-0.0069588064 0.02222808 -0.020445291 0.099271476 0.027337385 0.032724794 0.11511843 -0.03213965
-0.106933884 0.08188734 -0.07153226 0.022538418 0.07887501 -0.09574965 0.07776002 0.02279963
-0.1070882 -0.030606523 -0.08006534 0.021115385 0.018409012 0.05114544 -0.086727485 0.014469418
0.09593165 -0.002117938 -0.085548416 0.03355574 0.04935938 -0.0039283494 -0.08129779 -0.05970444
0.063312024 -0.008359542 0.027501523 0.08725776 0.089232504 -0.07880692 -0.009106737 -0.040940154
0.026596526 -0.0010656636 0.018082807 0.07703022 0.051060617 -0.059988663 0.038029592 0.09719345
0.020940445 -0.032022752 -0.052554026 0.06399192 -0.051836148 0.0046280655 -0.019337941 0.09139974
-0.017174477 0.074084155 -0.09382505 0.0315371 -0.08513641 -0.024559366 -0.09440171 -0.047634974
0.055633634 0.09591279 0.008841159 0.042108797 -0.07748843 0.044446863 0.10722211 0.06447794
-0.07564221 -0.08439922 -0.048995286 -0.029346 0.03078115 0.03279616 0.01351419 -0.07267444
-0.04550891 -0.047081046 -0.009381008 0.053389248 0.061653715 0.09779628 -0.054479174 0.052575648
-0.055945378 0.04721708 0.07864157 0.07379061 -0.029584538 -0.01949904 -0.07542874 -0.04596945
-0.03820536 0.04528654 -0.030227512 0.065987505 -0.07804035 -0.08760686 -0.06325773 -0.12644964
0.039795842 -0.0029497992 0.07292431 0.066506214 -0.084339425 -0.11615961 0.032986447 0.0533435
0.035182733 -0.03486847 -0.10029489 -0.012267734 0.012437085 -0.052423168 0.070143834 0.016078437
0.11495291 0.095078096 0.07335497 -0.024133295 0.099974446 0.08100474 0.02405755 -0.08983912
0.018823782 -0.008174924 -0.035480827 0.017792815 0.07184959 -0.056114204 -0.025314646 -0.037246738
0.060865145 0.0018264716 -0.07889096 0.089455456 0.07343991 0.01845707 0.064926334 -0.025055293
-0.0652316 0.0863282 -0.014193912 -0.011503971 0.07535244 0.08216543 -0.04119545 0.11156565
0.13128588 0.08426111 0.05254329 0.032599647 0.095646486 -0.089484505 -0.09750981 -0.07108988
-0.03940299 -0.006726525 -0.00050894986 -0.06056933 0.0400375 -0.024225278 -0.037963618 0.000716121
0.08814667 -0.028300038 0.04031726 0.025368527 0.045798767 -0.029092483 -0.08578642 0.06350906
0.032305222 0.01361993 0.04892697 0.05374076 -0.041201375 -0.04106276 0.1034623 -0.02658831
-0.04309217 -0.040048867 0.06665988 0.021108275 0.08196495 0.11078943 0.07893605 0.035994407
-0.0018624568 -0.026281588 -0.054211076 -0.010552219 0.09094066 0.055768866 -0.027029803 -0.07561827
-0.0026883627 0.07232634 -0.121596165 -0.061767984 0.09224372 -0.12340746 0.07585824 0.081069164
0.007641514 -0.048197944 0.064158246 -0.09059765 -0.056389634 -0.012095709 -0.06533353 -0.05272853
0.057261154 0.04314123 -0.034199987 -0.044905096 -0.01572157 -0.06523991 0.017164761 0.14280081
-0.036466725 -0.035216168 -0.0047449325 -0.048178803 -0.08041934 -0.0071583805 -0.048643757 -0.042112768
0.09127586 -0.08846211 0.035976972 0.05560838 -0.103912376 0.0050460505 0.096205875 -0.0021554122
0.06570337 0.04719049 0.013779468 0.069582686 -0.015968936 -0.00080691196 -0.07417154 0.09393171

sequential_2/dense_5/BiasAdd/ReadVariableOp f4 [3]
00000000: 684c dfbb c43a 4338 23a3 fc3a
-0.0068145283 4.6546353e-05 0.0019274693

sequential_2/dense_4/BiasAdd/ReadVariableOp f4 [128]
00000000: 6ad1 563b b314 793b f182 643c 45c6 c4bb
00000010: 3e67 e43a 29db d83b ce3e bfbb 4089 23bc
00000020: 4438 563b a185 0a3c 6cd4 f83b 0000 0000
00000030: 9418 4c3c 970a 24bc 0a48 00bc 79c8 263c
00000040: 17dc 6a3b 8f2b 91bb ef10 113c b81b 86bb
00000050: 4424 afba dc59 28bc 0749 4abb 1b79 ce3a
00000060: 7b4b 023b c1b9 eabb ef3f 30bb c5b6 383b
00000070: 88f6 4fbb 7d9f 40ba 707c 573a 0000 0000
00000080: 5788 513c a4ef 0abc 7dac a53b 0000 0000
00000090: 98aa 433c 3413 3b3c 2fcd e5bb deec f9bb
000000a0: 9917 22bb 6e47 40bb 7b10 26bc 75ca dd3b
000000b0: 2bd6 08bc ca24 12bc 4897 3bba f674 0b3b
000000c0: 9872 003b 306a 0c3b 5c75 acba 0af7 6a3a
000000d0: 89ed b73b 912f f63b 2682 71bb 6c72 683c
000000e0: bd35 79ba 901e 8c39 6e41 9eba 5dc0 713b
000000f0: d7ec 843c 633a b63b 533c 953c 920a 9bba
00000100: 6d15 24bc 8ed8 4dbb f67a 223c 0302 cf3b
00000110: e9fc 20bc bd98 643b c756 cb3b c5b8 87ba
00000120: 41be 1fbc e30f d6ba c04b 8dba 8601 003c
00000130: 7e5e f0bb 479c 833b 5720 4d3c 615e 803b
00000140: 3359 2bbb 842e 903c 4ac8 1a3c ddcd 21bb
00000150: a8ea 053c a541 e1bb 2066 903c 4953 fdbb
00000160: 041e 293c 9eb0 15bc 09f2 00bc 0000 0000
00000170: 7390 b83b 767c 093b 388e 59b9 22bb 98ba
00000180: 996b 1cbb b04e 2ebb 9deb 8e3b 65a6 f43b
00000190: ac94 0dba a614 743c 4d2e 42bc db61 78bb
000001a0: a0a3 f6bb a1e7 2c3b fc85 ddbb 0000 0000
000001b0: d686 58bb 6cc1 163b 1fda eb3b df86 bb3b
000001c0: 0000 0000 785c 593c 0eb6 f5bb bd4a 183c
000001d0: d652 753b de6c e33b aaae 9439 d1ef f1bb
000001e0: 3b9c 22bb 34cb 28bc 7863 733c 0000 0000
000001f0: 7ec6 883b 1970 50bb 6884 26bc 9034 853c
0.003277863 0.0038006722 0.0139472345 -0.006005081 0.0017425788 0.006617923 -0.0058363443 -0.009981453
0.0032687346 0.008454711 0.007593682 0.0 0.012457032 -0.01001229 -0.007829675 0.010179632
0.003583675 -0.0044302414 0.008854135 -0.00409266 -0.0013362248 -0.01027533 -0.0030866282 0.0015752645
0.0019881416 -0.007163257 -0.0026893576 0.002818511 -0.0031732637 -0.00073479844 0.0008220142 0.0
0.012788854 -0.008479986 0.0050559626 0.0 0.011942528 0.011418153 -0.007012985 -0.0076271137
-0.0024733304 -0.002933945 -0.010135765 0.0067685195 -0.008351843 -0.008919904 -0.00071560265 0.002127943
0.0019599553 0.0021425597 -0.0013157534 0.0008963203 0.005613033 0.0075129946 -0.0036851256 0.014187437
-0.0009506604 0.00026725652 -0.0012073943 0.003688834 0.016226215 0.0055611595 0.018217241 -0.0011828712
-0.010014874 -0.0031409594 0.0099170115 0.0063173785 -0.0098259235 0.0034881078 0.006205413 -0.0010354748
-0.00974995 -0.0016331639 -0.0010780022 0.007812863 -0.007335483 0.0040164324 0.012519917 0.003917501
-0.0026145696 0.017600305 0.009447167 -0.0024689354 0.008173622 -0.0068742805 0.017626822 -0.0077308756
0.010322098 -0.009136347 -0.007870206 0.0 0.005632454 0.0020978726 -0.00020747713 -0.001165245
-0.0023867844 -0.0026597194 0.0043615834 0.007466125 -0.0005400877 0.014897501 -0.011851859 -0.0037900123
-0.00752683 0.0026383179 -0.006760357 0.0 -0.0033039353 0.0023003472 0.007197633 0.005722865
0.0 0.013266675 -0.0074985093 0.009295163 0.0037433407 0.006940468 0.00028358895 -0.0073833247
-0.002481236 -0.010302354 0.014855258 0.0 0.0041740527 -0.0031805097 -0.010163404 0.016260415

sequential_2/dense_4/MatMul f4 [128, 128]
00000000: c227 3bbd ade7 d9bd 19b0 cabd 125d 8c3c
00000010: 30d2 14bd 9037 e53d bc7e 19be a755 0a3e
00000020: d5d6 15be b977 8ebd 06c5 223e 9489 98bd
00000030: fa9f 1a3e 2755 3c3d d583 88bc f92f d13d
00000040: 44ab e23a 5d94 dc3d 3a38 05be 29e2 3b3d
00000050: dc69 1c3e 8ff6 17bd f7f1 cb3d 5df6 733d
00000060: c7f9 34be fe04 05be 4f8c d3bd 94a0 1c3e
00000070: 67c5 0fbb 78ac 4f3d 0d42 fa3d 30a6 0fbe
00000080: 5d37 8bbd 8e68 acbd b493 9c3a 4b17 c33d
00000090: 3b71 023e 8ca7 8abd 0ce3 1d3a 73bd d93b
000000a0: 3ca2 00be 11de 213e 391c 0c3d 422e ab3d
000000b0: 8415 93bc d177 70bc e678 bb3d b8fd 873d
000000c0: 3aa3 f33d 6873 4bbd decf f93d 0c3f 04be
000000d0: ce7b 01be d821 b13d 6f66 66bd 98c0 c53c
000000e0: 5bd7 e3bd ca4d 2fbd 53c3 133e cb12 c9bc
000000f0: 9f8e 733c f3a1 ca3c ecd4 8a3d ecb1 ad3d
00000100: dfdd cb3d 03df bc3d eb32 4ebd 9c25 72bd
00000110: bb22 13bd bfc6 333d a688 063e 7ddc 2bbd
00000120: a144 fa3d 0d59 113e beaf a6bc 2669 64bd
00000130: 63e0 1a3c 856d 713d f294 023a 51f4 0fbe
00000140: 8681 cb3d cf0c 6b3d 5a14 913d 63d8 0ebe
00000150: 9bc9 bdbd 6b0c 98bd e189 a23d 2d68 1b3e
00000160: 3b06 833b b369 8dbd fb1d 9e3d def5 b93d
00000170: ec1b 483d a735 ffbd 96ee b4bd 552b 843d
00000180: 9391 8dbd 03f4 b9bd 9fa9 b33b a075 bfbd
00000190: e25d 073e 9b67 a43d 19ae a7bd ebec a8bc
000001a0: e369 b23d 9bec e83d fdb5 e53d 85df e23d
000001b0: 96f9 753d 4967 e2bd db96 7abd 1e9c 0cbd
000001c0: d814 233d 389b 82bd 0249 ccbd ac5d 09bd
000001d0: 139c 333d 9b18 0bbe 1c6e 8cbd 00f5 0d3a
000001e0: 71f4 9fbd 1dbc 39bb 21b2 25bd 4810 cb3d
000001f0: 202e 733d 43e1 b1bd e463 cb3d 11f9 b1bd
00000200: 3915 90bc 1457 cf3d e913 543b 1a5f 2fbc
00000210: 4e2f 1d3d 3812 513d cb1e dbbd 7a39 163d
00000220: e8a6 333c 8a06 1bbe 41de 993d 86fb 013e
00000230: 785a f13d 51df c7bd 244a 81bd 8efe cf3d
00000240: 4e55 21bd 1797 ddbd 00d1 753d 39c9 0cbe
00000250: c1a0 febd d1b2 753c 1e02 1abc 2a1b aabd
00000260: 0bf6 a1bc f65c 2e3d 0deb 4ebc 0ec2 f93d
00000270: c544 ed3d 10cd 70bd 5b6f f5bd 518b 22bd
00000280: 384d 31bd 1b80 dabd 9ef1 3d3d 89c8 43bd
00000290: 4026 ee3d becb babd da97 f53d 4284 eebd
000002a0: 91db 3e3e 984a 1cbe 230a 7dbd 423a 1e3d
000002b0: 48ea 413d 350e 1d3d 4ac7 7a3c 7987 443b
000002c0: f4e8 f8bc 145b adbd cc8e dbbd c7bb 8e3b
000002d0: d1bd aa3d 66d2 76bd 98ce 0e3e fcac bb3d
000002e0: 4aa1 bdbd 5af9 60bd 059d d33c 6277 cf3d
000002f0: dc93 b3bd c1e5 7f3c a947 b83c 0fc7 09be
00000300: ab22 e83b ecdd 233e 74ff bb3d 865a a5bd
00000310: 1302 0a3a 9825 0fbe 5d88 c63c 04c3 583d
00000320: 2d54 4f3d 5702 03be 3432 0c3e ac42 79b8
00000330: d220 8a3d c203 87bd 5aec 273e 09c6 fabc
00000340: 7a2a dd3d 96a4 f13d 9e41 903d 7446 d03d
00000350: 20ec 13be 0ccc fdbd dad0 62bd ea62 07be
00000360: b7d6 e2bc d905 82bd da60 18bd c649 98bd
00000370: c65f f03d 7ebc bdbd 97a3 12bc 984b b8bc
00000380: d897 93bd b706 42bc eb03 f8bd 71cc 64bd
00000390: f2a5 e6b9 3669 babd 57d2 f03d 845c 953d
000003a0: 5aa9 9abd 5dbb 62bb 1220 f33d ba30 86bd
000003b0: 4587 9abb 124b 7a3d bd52 5f3d 8913 08bd
000003c0: 32b0 ce3d 1e5d ba3d e7ff 91bd e388 b23a
000003d0: 0a73 953d 9dc1 133e e59a c13d 0bfe e7bd
000003e0: c20b d23d 8d1b 173e 1bce d5bd 0229 de3d
000003f0: 9097 2fbe 3fb0 b1bc 19fc 023e d6b3 b13c
-0.045692213 -0.10639892 -0.09896869 0.017134223 -0.036333263 0.11192238 -0.14989752 0.13509236
-0.14632733 -0.06956429 0.15895471 -0.07448116 0.15100089 0.045979645 -0.016664425 0.10214228
0.0017293473 0.107704856 -0.1300973 0.04586998 0.15274757 -0.03710037 0.099582605 0.059561122
-0.17673407 -0.12990186 -0.10329496 0.1529563 -0.002193773 0.05070159 0.122196294 -0.14028239
-0.06797669 -0.0841838 0.0011945874 0.09525927 0.12738506 -0.06770238 0.00060229073 0.0066448986
-0.12561888 0.15807368 0.034206603 0.08358432 -0.017954595 -0.014677004 0.09153919 0.0664019
0.11896367 -0.049670607 0.12197851 -0.12914675 -0.12644884 0.08649033 -0.056250032 0.024139687
-0.1112506 -0.042798795 0.14429979 -0.024545094 0.0148655465 0.024735427 0.06778893 0.084812015
0.09954428 0.092222236 -0.050341528 -0.0591179 -0.035921793 0.04389071 0.13138065 -0.04195832
0.12220121 0.14194126 -0.020347472 -0.05576434 0.009452912 0.058942337 0.0004981301 -0.14058043
0.09936814 0.057385262 0.0708396 -0.13949732 -0.09266969 -0.074242435 0.079364546 0.15176459
0.0039985455 -0.06904926 0.07720562 0.090800986 0.048854753 -0.12461405 -0.08834569 0.064535774
-0.06912532 -0.09079745 0.005482867 -0.09348607 0.13219407 0.08027574 -0.08187503 -0.020620784
0.087116025 0.11373254 0.11216352 0.11077789 0.060052477 -0.11054856 -0.061179023 -0.034328572
0.0398148 -0.06377262 -0.09974863 -0.033536598 0.043850016 -0.13583605 -0.06856939 0.0005415231
-0.078102954 -0.0028340884 -0.04045308 0.09915215 0.05937016 -0.086855434 0.09931162 -0.08690084
-0.017588245 0.10124031 0.00323605 -0.010703826 0.03837519 0.051042765 -0.10699233 0.036675908
0.0109650865 -0.15139213 0.07513095 0.12693605 0.11784834 -0.09759391 -0.06312969 0.10155974
-0.039387994 -0.10819834 0.06001377 -0.13748635 -0.12433005 0.014996246 -0.009399919 -0.083059624
-0.019770643 0.042569123 -0.012629283 0.12195216 0.11585382 -0.058789313 -0.1198413 -0.039683644
-0.043286532 -0.106689654 0.046373002 -0.047798667 0.11628389 -0.09120892 0.11991854 -0.1164632
0.18638445 -0.1526283 -0.061777245 0.038629778 0.04734257 0.038343627 0.015306303 0.0029987975
-0.030384518 -0.084646374 -0.10720596 0.004355881 0.08336986 -0.060259245 0.13945997 0.091638535
-0.09259279 -0.0549253 0.025831709 0.10130192 -0.08768436 0.015618742 0.022495108 -0.13454841
0.007084211 0.16002625 0.09179583 -0.080739066 0.00052645913 -0.13979185 0.024234945 0.052920356
0.050617386 -0.12793861 0.13691026 -5.942832e-05 0.06744541 -0.065925136 0.16398755 -0.030612009
0.107991174 0.117989704 0.070437655 0.10169688 -0.14445543 -0.123924345 -0.055374958 -0.13221326
-0.027690275 -0.063487716 -0.03720174 -0.07435946 0.11737017 -0.09264468 -0.008950136 -0.022496983
-0.07206696 -0.011842421 -0.12110122 -0.055859033 -0.00043992657 -0.09102099 0.11758869 0.072930366
-0.075518325 -0.003459654 0.11871351 -0.065522626 -0.0047158324 0.06110675 0.054522265 -0.033221755
0.100922 0.09099792 -0.071288876 0.0013621118 0.072973326 0.14429326 0.09453372 -0.11327752
0.10256149 0.14756604 -0.10439702 0.10847665 -0.1714766 -0.021690486 0.1279148 0.021692198

sequential_2/dense_5/MatMul f4 [3, 128]
00000000: 662a e43d 16e8 3a3d 2dbb a73d 3dd3 d83d
00000010: 025f 8f3d 8c6b 5b3d ce90 49bd b02d 4f3e
00000020: 4c55 053e cf6e b83d 3145 00be 23d8 573e
00000030: 6f77 a63d 44d1 a8ba 692d 55be 6bae 0ebe
00000040: c867 fcbc 8df5 0cbe 2abf 3ebe 9617 a5bd
00000050: b578 573d 721b 1a3e 8502 523e d191 3b3e
00000060: b3df 8ebd c915 2a3d 2b86 2a3e bcaf 423e
00000070: bc6d 533d 2c39 503e e656 943d 3f90 33be
00000080: 7b5a 82be 71c4 083e ec25 d43d 0172 4fbe
00000090: 9fe0 01be ce40 06be 56a2 92bc b761 80bd
000000a0: 0e57 8bbd bc18 c1bd 90df 3c3e 5ee8 213d
000000b0: 324e 4d3e 7201 1bbd 2583 2f3e ef5f a6bc
000000c0: 147a 323e 684c 2bbe 2500 5a3e ef9a a43d
000000d0: 69c9 2dbe c5b5 31be dfa7 cc3d 3c5f b33d
000000e0: e5bc 583e b126 593d b324 353e d54c 413d
000000f0: 7f3c 80be 3180 0bbe 62e8 143e 956d e73c
00000100: 588e 983d c282 02be 7b47 bf3c dd5e 093e
00000110: 14b1 3c3e 4c55 10be 3629 453e c8c7 0a3e
00000120: 5005 813c 1a5c 2a3e 3ad9 613e a058 47be
00000130: d3b6 2b3e 7d30 c03d aa71 c2bc ae2b cabd
00000140: f042 ca3d a1e6 d4bb 3441 f1bd 202c 08bd
00000150: 3dd7 b1bd d603 1bbe ed1f 873d ff52 9bbd
00000160: 7da5 ec3a 76be 4f3d 79ed 053e 847c 71bd
00000170: 555c c8bd 5235 47bd 1c62 51be bcb6 0cbd
00000180: aaed 26be c25b aebd 3ab4 3a3e ce3c 6fbe
00000190: 5c97 323c c3af c0bd 8959 3a3e bfd1 f1bc
000001a0: 2a83 4a3e 80f0 c13d b08f 5bbe 7dc0 5a3e
000001b0: 6020 463e 4e02 ba3d 30d3 3abe eada b53c
000001c0: b8a3 b4bd 999b 803e 91a5 493e 016a 65be
000001d0: 14bf 64bd df63 29be 50c9 dcbd 2aa3 3d3e
000001e0: da92 613e 3478 45bd 768f fc3d d215 bd3d
000001f0: a4aa ad3d 18d3 aabd db33 2a3e 8de6 263d
00000200: 58a9 b53d 5373 0fbe e2d2 373e 928c 47be
00000210: 2f83 263e 0ab0 323e f211 54be a18f b93d
00000220: 3949 4cbe e35c 113e 7bac b9bd a8cb 24be
00000230: 127c 4bbe c6b5 2cbd 90f3 3e3e 5cc1 a43a
00000240: b681 6a3b a682 803d 917a 643e 65bf 20bd
00000250: 31bd acbc 5ade bbbd 3c50 a03d 071a 82bd
00000260: 9124 183e 5cb8 4cbe b8f1 003e 3856 64be
00000270: 3790 edbd 6409 cfbd 566c f13d e8ab 80bc
00000280: 2092 efbd 2892 10be fd4a 933d df96 063e
00000290: 357b 633e bf21 61bc 8417 473e c4c9 513e
000002a0: 79ea 2d3d f474 903d b34e c5bd 5d07 1c3e
000002b0: b190 503c ddc6 8ebd f492 13bd 7dc7 8e3d
000002c0: 07a8 85bd a056 49be 54b3 773d 86fd ab3d
000002d0: 1a65 d5bd ae8a 423d 5030 bbbd 270b 103e
000002e0: fb35 c63c cce9 7abe 4227 00be 520b be3d
000002f0: a427 6d3e 9d30 ac3c 2535 49be 282b 2fbe
00000300: 74cf b2bd 83ac 29be 8ed0 01be f101 dabd
00000310: c55e 73be c827 933c 6c7a 2fbe eace af3c
00000320: 74fd 74bb 746c 243e a86c 58be 9083 b4bc
00000330: 688c 573c d6c8 223e e124 203e 9213 5d3e
00000340: a1ba a8bc c889 823e 164d 50be 2ac9 4e3d
00000350: a218 3ebe b1d1 47be cb2d 1a3e ec73 07be
00000360: 2f87 313e 84f1 a0bc 6f65 5ebc 8c3e 793d
00000370: 5e05 0e3e 221d 313c e55e 4fbe 4d6f 64be
00000380: fcaa 4ebd a3aa e0bb 4610 1f3d 8447 efba
00000390: 5fd0 cd3d f047 093e 9b00 02bd 7450 543e
000003a0: 53ea dabd b874 373e 45eb 11be 2ed0 e53d
000003b0: 5348 01be 7657 0f3e 75c0 1fbe c5b0 c3bd
000003c0: 2af3 8e3d 6688 c73d ef12 37be 6920 733d
000003d0: b2dd 24be 548a 213e 1fb0 90bc 15cd c6bd
000003e0: cd24 59be fa81 09be c88d 8ab8 b7fc 28be
000003f0: d252 563e e246 d2bd b120 f9bd ef5b 303e
0.11140899 0.04563149 0.08189998 0.105871655 0.07000543 0.05356936 -0.049210362 0.20232272
0.1302082 0.0900551 -0.12526394 0.21078543 0.08128249 -0.0012879749 -0.20818104 -0.13933723
-0.030811206 -0.13765545 -0.18627611 -0.08061139 0.05260535 0.15049532 0.20508774 0.18317343
-0.06976261 0.041524682 0.16652744 0.1901235 0.051618323 0.2033431 0.07243137 -0.17535494
-0.25459656 0.13356186 0.103587955 -0.20258333 -0.12683342 -0.13110659 -0.017899673 -0.062686376
-0.06803714 -0.09428546 0.18444657 0.039528243 0.2004936 -0.037843175 0.17139871 -0.020309417
0.17429382 -0.16728365 0.21289118 0.08037364 -0.16971363 -0.17354496 0.09992956 0.08758399
0.21165808 0.053015415 0.17689781 0.047192413 -0.25046155 -0.1362312 0.14541772 0.028250495
0.07449025 -0.12745193 0.023349514 0.13415094 0.18426925 -0.14095038 0.19254002 0.13552773
0.015749604 0.16636696 0.22055522 -0.19467402 0.1676896 0.093842484 -0.02373584 -0.098716125
0.098760486 -0.0064972197 -0.11780015 -0.033245206 -0.086836316 -0.15138182 0.06597886 -0.075841896
0.001805469 0.050718747 0.1307887 -0.058956638 -0.09783236 -0.048634835 -0.20447582 -0.034353957
-0.16301599 -0.08513595 0.18232813 -0.23363039 0.010900345 -0.09408524 0.18198217 -0.02951896
0.19776598 0.094697 -0.21441531 0.21362491 0.19348288 0.09082471 -0.18244624 0.022199113
-0.088202894 0.25118712 0.19692065 -0.22403719 -0.05584629 -0.16542004 -0.10780585 0.18519273
0.22028676 -0.048210338 0.123320505 0.092326775 0.08479813 -0.08341044 0.16621344 0.040747214
0.088701904 -0.14008836 0.17951539 -0.19487217 0.1626098 0.17449966 -0.2070997 0.09060598
-0.19949807 0.1419559 -0.09066101 -0.16093314 -0.19871548 -0.04216554 0.18647599 0.0012569833
0.003578288 0.06274919 0.2231238 -0.039245028 -0.021086307 -0.091732696 0.078278035 -0.063526206
0.14857699 -0.19992203 0.12592208 -0.22298515 -0.115997724 -0.10109213 0.117882416 -0.015706971
-0.11697793 -0.14118254 0.07192037 0.1314349 0.22214969 -0.013740956 0.19442564 0.20487124
0.04245994 0.07053557 -0.09634151 0.15237184 0.01272981 -0.06971524 -0.036028817 0.06971643
-0.06526189 -0.19661951 0.060473755 0.08397965 -0.10419674 0.047495537 -0.09140074 0.14066754
0.024195662 -0.24503249 -0.12514976 0.09279503 0.23159653 0.021019274 -0.1964918 -0.17106307
-0.08730975 -0.16569714 -0.12677214 -0.106449015 -0.2376662 0.017963305 -0.17136544 0.021460969
-0.0037382515 0.16056997 -0.21135199 -0.02203539 0.013156034 0.15896925 0.15639068 0.21589497
-0.020596804 0.25495744 -0.20341906 0.050484814 -0.18564084 -0.19513585 0.15056531 -0.13227814
0.17336725 -0.019646414 -0.013573988 0.060850665 0.13869235 0.010810168 -0.20251043 -0.22308083
-0.050456032 -0.006856279 0.03883388 -0.0018255566 0.10049509 0.13406348 -0.03173886 0.20733815
-0.10689225 0.17915618 -0.14249904 0.11221348 -0.12625246 0.13998207 -0.1560076 -0.095552005
0.069799736 0.09742813 -0.17878316 0.05935708 -0.16100195 0.15775424 -0.017662106 -0.09707085
-0.21205445 -0.13428488 -6.6067616e-05 -0.16502653 0.20930031 -0.10267426 -0.121644385 0.1722257
